cnn_fashionMNIST.pth (torch, 129186 bytes, 6 tensors)

conv_block.0.weight f4 [15, 1, 3, 3]
00000000: c0c4 87be 7f6c 5e3e 69e9 1fbe 805f bbbe
00000010: 5347 c6bd 9fb4 4c3e 53b2 29bf 6cc6 f03e
00000020: b2e3 263f 2063 eabd 2d47 083f bbcf d8bd
00000030: 7b92 5a3d dbee f53e 3fd2 d5be 1aaf a63e
00000040: aa98 f53d 7b83 26bf 94d7 50be 3360 793e
00000050: f0ab e63e e838 1cbf 5963 c53e 7c95 de3e
00000060: 47e5 c6be fe06 83be 835e 123e 1aec 003e
00000070: 70a1 743d b1a9 33be 95e0 ac3e 6b61 143f
00000080: 1e49 6dbf 7126 173e 4ab7 0c3f 1065 32bf
00000090: 42d4 2e3e 5b09 333f 7844 a8be ab6b 69bf
000000a0: 4dc8 163e 3a59 a03e 3c04 3abf 3ab8 1d3f
000000b0: 2951 43be 4aea 0bbe 665c 24be 0215 50bf
000000c0: ee60 bdbe ffec 913d b7fe 123f 1e24 80be
000000d0: caca 1e3f 1817 f43e 9302 3cbe c289 22bf
000000e0: 0267 d9be f935 e0bd 316d 73bd bbed c7be
000000f0: 475e c13e aed7 323f 8161 933d f95a aebe
00000100: 7e97 d3be 1725 f13d dee3 23bf 5f03 a33e
00000110: 042e 9ebe ae3e 873a 3e9c fa3e c1d0 b5be
00000120: b2a8 c03e 3257 ebbd 238e d93d a767 1c3e
00000130: fbc5 143e 37c1 ea3e 3d35 77bd bef0 c23d
00000140: b071 043e 1ff3 d2be 95eb 9dbe e3f6 d83e
00000150: 8714 b0bd 2845 ee3e abdc 203e 80e9 02bd
00000160: 111d 8c3e 0f00 e4bd 1d98 8cbb 1d70 23be
00000170: a434 173e 264e a3be cf94 31bf 1448 b3be
00000180: 5b7f 30bd 3fe8 f2be 0903 f3bc 9806 883e
00000190: a70c 153e b22e 0f3d 23d4 09bf 8a4d f5be
000001a0: 26a4 6bbe cb1c db3e 8c10 123f c419 23be
000001b0: 2c78 88be af7a b6be c2fc 47bd 49dd c23e
000001c0: 9785 4b3d 671c 28be fa4b 1d3e 93fc 9dbe
000001d0: 95a4 a53e 243f 88bd d844 3b3e be84 5f3d
000001e0: c969 f8be db20 993e a23e b6be 826b c23d
000001f0: 46bb ad3e 7fe7 abbd 4676 b03e 5b3c fabe
00000200: addc e0bd b034 a7be 4a1b 4ebf e7cc cbbe
00000210: fc6b cb3c ff6a 293e 6ebf 09be
-0.26517296 0.21721075 -0.15616383 -0.36596298 -0.09681573 0.19990776 -0.66287726 0.47026384
0.65191185 -0.11444688 0.53233606 -0.105864964 0.05336235 0.48033795 -0.41761968 0.32555467
0.11992009 -0.65044373 -0.20394737 0.24353103 0.45053053 -0.6102433 0.3855236 0.43473423
-0.388468 -0.25591272 0.14293866 0.12590066 0.05972427 -0.17545201 0.33765092 0.5796115
-0.9268969 0.14760758 0.54967177 -0.6968546 0.17073157 0.6993615 -0.32864738 -0.91179913
0.14724846 0.31318074 -0.7266271 0.6160923 -0.19073929 -0.13663593 -0.16050872 -0.81282055
-0.36988014 0.071252815 0.57419914 -0.25027555 0.6202818 0.4767387 -0.18360357 -0.6349145
-0.424614 -0.109477945 -0.059430305 -0.3904856 0.3776724 0.6986035 0.07196332 -0.34053782
-0.41326517 0.117746525 -0.6401957 0.3183851 -0.30894482 0.0010318363 0.48947328 -0.3551083
0.37628704 -0.114912406 0.106228136 0.15273915 0.14528649 0.45850536 -0.060353506 0.09518574
0.12933993 -0.41201112 -0.30843797 0.4237586 -0.08597665 0.46537137 0.15709178 -0.031960964
0.27365926 -0.11132824 -0.0042905943 -0.15960737 0.14766175 -0.3189556 -0.6936769 -0.3501593
-0.043090206 -0.47442815 -0.029664533 0.2656753 0.14555608 0.03495664 -0.5383932 -0.4791072
-0.23011836 0.42795405 0.570565 -0.15927798 -0.26654184 -0.35640475 -0.048825033 0.38059452
0.049687948 -0.16417085 0.15361014 -0.3085676 0.3235213 -0.06652668 0.1828798 0.054569952
-0.48518208 0.2990788 -0.3559466 0.09493162 0.3393194 -0.08393764 0.34465235 -0.48874173
-0.109795906 -0.32657385 -0.8051039 -0.39804766 0.024831764 0.16544722 -0.13451931

conv_block.0.bias f4 [15]
00000000: 3a20 543e de1a 5b3e d652 a83d 8bd6 f0bb
00000010: 9c1d b93e 117c 2f3e d183 1dbf 69e1 dfbd
00000020: 3f76 99bc e42e 1fbe 2766 c4bf 9cde cc3c
00000030: 551c 643d 07ef 01be 4c2a 96bf
0.20715418 0.21396968 0.08218925 -0.0073497943 0.36155403 0.17137171 -0.6152926 -0.109316655
-0.018733142 -0.15545231 -1.5343674 0.025008492 0.055691082 -0.12688838 -1.1731658

conv_block.2.weight f4 [15, 15, 3, 3]
00000000: 2d7b b8bd 9fa3 3b3c 7fe6 2a3e 2b4f 9abd
00000010: 9719 1a3e 9b21 863d c01d 683d 6132 a33c
00000020: b2fb 613c 9d64 033e e07b 0dbe 3a25 e9bd
00000030: 3411 733c 6df9 52be 800b 193d 3825 25be
00000040: 1bd8 f4bd 2d0e c93d 2fba 89bd dfbc 84bd
00000050: 5337 96bd f365 a03b e301 403d f564 c13d
00000060: 8b17 5bbc 5ffb 743d 73da 33bd f859 893d
00000070: 3c0a 453e 1fa4 efbd 7278 903d e342 c43b
00000080: 28ae 40bd ebef 0b3c b49c 1e3d aafa 4bbd
00000090: ff5c c53c bb50 aabe 18d2 113e b655 3fbe
000000a0: ee71 f03b e415 a9bd b6d5 cabc 2ce0 9fbd
000000b0: 3364 1f3c ba26 59be 4734 f3bd 1da0 3b3d
000000c0: 4c9b 0cbe 929f 0a3e ce95 1abe 8c0d 70bd
000000d0: 9ebd cebc 8895 84bd 2813 b3bd f31c 13be
000000e0: f1ae a5bd 4405 31be 96a8 9ebd e861 eebd
000000f0: 14da 1abe aa8a 15be 0560 1fbe e68f 6b3e
00000100: 3cab 7dbd 9289 4f3e c4b6 9dbb 0af3 9b3c
00000110: f864 4e3e 35d3 b8bd bf94 2b3e 077e 23bc
00000120: ce68 863d 13ae 763d 1948 c33c af0f 853d
00000130: 30ff 4c3d e82b 823d 7184 6fbd fe4d c53d
00000140: 6015 4c3c d040 ed3d c08d f3bd 4330 a03c
00000150: 4ec4 aebd 2b82 a93d 558c cd3d 7807 8c3c
00000160: 0fc0 e33c e0bd b1bd 9328 29bd 3f19 e23d
00000170: dec6 9fbc fd28 013c 3c5d e8bb f2f9 73bd
00000180: 8883 e7bc 4a5d efbb adb8 a8bd bd3b 8e3c
00000190: 0f5d d2bd 9d32 25bc ca7f 5ebd 2b30 82bc
000001a0: 6f5f 2d3d 3ded 273d fb8f c2bc 5f21 e53a
000001b0: 0068 833d ec68 653d d9de 9dbc 58b0 ba3d
000001c0: babe d3bc 7ef4 5bbd e84a a3bd 507d 30bd
000001d0: 1ff4 babc 2119 b03b 8915 4bbd 5f3c 9e3d
000001e0: c060 2abd 6521 b0bd 2810 14bd 5f5c 1b3d
000001f0: f940 e83c 725a 3f3d 9984 e33d 32fd f13a
00000200: b52d 653d 4f39 dd3c 3fc5 fc3d e711 c13b
00000210: b174 69bd 981b 843d e684 39be 8f69 fa3d
00000220: 4cf2 213e 933b 0f3d 53a5 8fbd 015f a63d
00000230: 5521 febd b625 ebbd af46 1fbd 5ef8 29bc
00000240: d157 0ebe c09f 45be 23ce 3cbe bb8f 8ebd
00000250: 565e 65bd 8e44 8abd a43f c53d ce54 cfbd
00000260: c00c 6fbd 3b5e 57bc 6981 c33c b5f1 f3bd
00000270: 2b67 edbd f31d fa3d a801 44bd 5dd0 55bc
00000280: 8b3c 053e d0eb 703d d168 26be eee6 4cbd
00000290: 4d7c 8abc 427c b9bd 8062 2cbe d16b 173d
000002a0: 011e dd3c 73dd aabd 77af 9fbd fa8f 8fbd
000002b0: dc99 6d3d 08a1 8cbd b75c 67be 590c 503d
000002c0: 6807 5d3e 3953 003e 231a 103d 38b7 973e
000002d0: 1166 093e 2b4e 0e3e 8626 063e c208 16be
000002e0: d718 cebd 6185 c1bc a13e 4bbe a175 e0bd
000002f0: 6404 06bd f065 063e eb06 ae3d c895 0f3e
00000300: 49c8 32be 2bb1 32bd 3453 95bd a9c2 383d
00000310: 67c3 4abd 0af1 773d 0e69 cc3d b7b2 9d3d
00000320: dba2 3cbd 22ef 1fbe 4141 53be 0006 97bd
00000330: 5afd ea3d 4ab8 87bd 59a6 dc3d 6cd6 04be
00000340: a6b7 83bd 6c42 4d3d ee4e b1bc ffd2 d7bc
00000350: d120 783d 9a4f 8ebd 68be 813d 006c 0bbe
00000360: 8999 963c 74d0 26be 01d6 f9bd e3ce 173d
00000370: a6b6 f1bd 18c7 40be 5fe0 07bd e1f2 f8bd
00000380: 376e 10be ee32 34be 79f8 8ebe 132c 35be
00000390: 7502 f63c 34a8 debd 9e68 3e3d 60a0 743d
000003a0: 7e1f fe3d 448c bf3d 9c58 153e ddbc 963d
000003b0: 3546 bb3d fab3 94bd ecc3 89bb 86ce 91bd
000003c0: 6fb1 253e 0318 193e 4aa7 f73d 42bc a63d
000003d0: d51f 0abd f102 003e f3eb 86bd 0ea4 0b3d
000003e0: 2ed2 b9bd 6341 98bd 4c40 cfbd 5a8e 2abb
000003f0: c1e2 713d c996 083d 27f6 20bd 19c5 a0bd
-0.09007869 0.0114525845 0.1668949 -0.07534631 0.15048824 0.065493785 0.056668997 0.019921483
0.013792919 0.1283135 -0.13816786 -0.113840535 0.0148356445 -0.20602961 0.037364483 -0.16127479
-0.11955281 0.09817157 -0.06724965 -0.06481337 -0.07334771 0.004894966 0.0468768 0.09443084
-0.013372312 0.05981004 -0.0439095 0.06706613 0.19242185 -0.117012255 0.07054223 0.005989419
-0.04704109 0.008541088 0.038723662 -0.0497996 0.024092196 -0.33264717 0.142403 -0.1868504
0.0073378 -0.082561284 -0.024760108 -0.07806429 0.009728479 -0.2120618 -0.118752055 0.045806993
-0.13731116 0.13537434 -0.15096208 -0.05860667 -0.0252369 -0.06473833 -0.08743888 -0.14366512
-0.08090008 -0.17287165 -0.07746999 -0.11639768 -0.15122253 -0.14603677 -0.15563972 0.23004112
-0.06193088 0.20267323 -0.004813047 0.019036788 0.20155704 -0.090246595 0.16755961 -0.009978778
0.06562959 0.060224604 0.02383809 0.06497132 0.050048053 0.06356031 -0.058475915 0.096340165
0.012456268 0.11584628 -0.11892271 0.019554263 -0.08533536 0.08276781 0.10036532 0.017093405
0.027801542 -0.08678794 -0.04129846 0.110399716 -0.019504007 0.0078833075 -0.0070911925 -0.05956454
-0.028260961 -0.007304822 -0.08238349 0.01736247 -0.10271656 -0.010082868 -0.054321088 -0.015892109
0.04232734 0.040997732 -0.023750296 0.0017481259 0.06416321 0.056008264 -0.019271301 0.09115666
-0.025847781 -0.053699963 -0.079732716 -0.043088257 -0.022821484 0.0053740893 -0.049581084 0.077263586
-0.041596174 -0.086001195 -0.03614822 0.03792989 0.028351294 0.046717115 0.11109275 0.0018462299
0.055951793 0.027004866 0.12342309 0.0058920267 -0.05699605 0.064505756 -0.18117103 0.12227165
0.15815085 0.034968924 -0.07013955 0.08123589 -0.12408701 -0.11481802 -0.03888577 -0.010374157
-0.13900687 -0.19299221 -0.1843801 -0.06961008 -0.05599817 -0.06751357 0.09631279 -0.10123597
-0.05836177 -0.013145025 0.023865419 -0.11911336 -0.11591943 0.122127436 -0.047853142 -0.013050166
0.13011377 0.05881864 -0.16250922 -0.05002492 -0.016904974 -0.090569034 -0.1683445 0.036968056
0.026991846 -0.08343019 -0.07797139 -0.07009883 0.05800806 -0.06866652 -0.22593962 0.050793026
0.21584857 0.12531747 0.035181176 0.29631972 0.13417841 0.13897006 0.13100633 -0.14651778
-0.100633316 -0.02362317 -0.1984811 -0.10959936 -0.03271903 0.13124824 0.08497413 0.14021981
-0.17459215 -0.04362599 -0.0729126 0.045107517 -0.049502756 0.060532607 0.09980975 0.07700103
-0.04605375 -0.15618566 -0.20630361 -0.07374191 0.11474104 -0.06626947 0.10773916 -0.1297242
-0.064315125 0.050112173 -0.021644082 -0.026345728 0.06057817 -0.069487765 0.06335145 -0.13615417
0.018383758 -0.16290456 -0.12199021 0.037062537 -0.118024155 -0.18825948 -0.03317296 -0.121557005
-0.14104544 -0.17597553 -0.27923945 -0.17692594 0.030030468 -0.10871926 0.04648649 0.059723258
0.124083504 0.093529254 0.14584583 0.073602416 0.0914425 -0.0726089 -0.004204264 -0.07119469
0.16180967 0.14950566 0.12092455 0.08141376 -0.033721764 0.12501122 -0.065879725 0.034092
-0.09073292 -0.074343465 -0.101196855 -0.002602479 0.05905414 0.033346925 -0.03929725 -0.078500934

conv_block.2.bias f4 [15]
00000000: c88a 2abe 222b 723d 467f 89bd c98f e03e
00000010: 14ee b13d 7062 7f3d f9f7 6cbe e8a0 0fbe
00000020: df68 a2be ecad 21be 4b6c c23c 17e4 91bc
00000030: 1c5b 15be 709a 49be ae5f 4fbe
-0.16654503 0.059123166 -0.067137286 0.438597 0.08687988 0.062349737 -0.23141469 -0.14026225
-0.31720635 -0.15789002 0.023733279 -0.017808957 -0.14585537 -0.1968782 -0.20251343

classifier.1.weight f4 [10, 2940]
00000000: 5ecc 853c 432a 0cbc 584e b83c 757d cabb
00000010: 574f acbd fa62 9bbc 919e a3bc 75cd 3cbc
00000020: 61d7 1ebd 40d8 b23b e3ae 3f3d ced8 413d
00000030: 1af3 f6bb de06 85bc 2cc0 36bb fb18 9a3c
00000040: 37ef 78bc dff3 75bd 7aeb 26bd 8f94 46bc
00000050: c76f 13bd 0169 9fbb 3f84 c43c f889 c1bc
00000060: 707e bf3b 1bf8 103d 0f0e 2d3c 8334 6cbb
00000070: ca82 8c3a a708 ab3c f219 95bc 333b 55bc
00000080: 9051 43bc bee9 90bb f77b 15bd f29a 6abc
00000090: fc20 ca3c 94aa d33c 7f99 88ba 9801 cbbb
000000a0: b45b 85ba 0834 d33b d3a3 823b 8457 c0bc
000000b0: fd7a 8fbd c83c 0a3b b616 8d3c 5441 8dbc
000000c0: 639c 65bc a4cc b9b9 4599 16bd 6565 f9bc
000000d0: 6774 933d 629c f6bc 296e 2dbd 74c9 80bc
000000e0: 627a 183c 0ff8 fcbc 7cfd 95bd 133d 03bd
000000f0: a843 62bc 829f 9ebd 499d 19bd f2b1 0abd
00000100: 28ef febc 483a a63c 8f4d 5f3b a165 83bd
00000110: 884c 18bd 750b e7bb e521 9c3c bcbb 833c
00000120: 838b c6bc 1a9f 85ba dde5 06bd d8f6 07bd
00000130: c96c 11bd 0e4a a9bc c2bf 86bc d5c2 c43c
00000140: 5d52 57bb 8e09 b4bd b94b 86bd bdc3 50bc
00000150: 9163 f03b 6732 3d3c 1d40 1d3c 27fe 453c
00000160: 5b4c b3bc 88b3 303c b1ea dabb cfc1 2bbc
00000170: 86b7 a93c 9ebf e63a fa5f 5e3d f47f 5abd
00000180: 9e0a 72bc 468b 8dba 37bf 4e3c 1be8 313b
00000190: 5085 253d b524 d43c a786 8fbc 0943 293d
000001a0: ec3e 49bd e719 adbc 7853 003d d8c9 5b3c
000001b0: a173 8c3d 3d3e b9b9 713d 1fbc b302 b53b
000001c0: ec62 6a3c 9b76 193b 8408 853d 681c 7a3d
000001d0: 3da7 1dbc 31e9 273d 8825 8abc 63cd 98bc
000001e0: 4348 8d3c 3688 68bb 43d2 a33d d15e 2a3d
000001f0: a578 c5bb 442f 5139 9de9 a13c 90fa e9bb
00000200: 1e71 513b da10 2d3d bc65 0c3c 5502 c4b9
00000210: 8617 5e3b d35f bc3c 3f2c 943b 2dcf 7bbc
00000220: d945 103d ed3b 243d 77c7 bbbc d7f2 80bb
00000230: 6867 4a3c 9d21 e13b fe9a 293d 122d fc3c
00000240: c915 a03c 5c28 5c3c 85a0 df3a 975a 063b
00000250: 7609 c13c 9167 f6bb fd3b 5b3d 68a4 0b3c
00000260: 9602 3dbc e8da 70b9 181b 873c 4fc1 ed3c
00000270: c34d 983c 83fd c9bb 7987 393c 1636 a13c
00000280: ad46 f33b 737f 4a3c 44e2 0d3c ea01 9dbc
00000290: 0fb5 453d c2a2 fa3b 8642 b03c b250 7e3c
000002a0: 06f3 f3bb 4e76 ef3c 1ea5 d93c cbca 38bc
000002b0: 0383 0dbc c94b 3a3c 5373 6a3a 202d f13c
000002c0: 482e 413c 1874 71bb 4e0d 643b f132 2f3b
000002d0: 69ef 67bc de9e cc3c a590 c33c de1e 7d3c
000002e0: cb88 d039 2a6a 543d 29e6 7b3b 129c 873c
000002f0: 1454 bfbc 9e60 d23b 009e 04bd 9ccb 6fbd
00000300: 81c4 153c 9acf 9ebb 7bec 193c 8213 86bb
00000310: 9dbc a83b c48b d53b e23e ac3c 8b45 f53c
00000320: cf59 fe3c bd8e c53c da55 413c 4ad3 e0bb
00000330: a8f2 863c bd13 ecbc 0bed f23b c72a 80bc
00000340: 5d20 8e3c 4f2e 2f3c 435e 8e3c f544 bbbc
00000350: e8e5 d4b9 2376 b43b 10fc 063d f780 cf3c
00000360: 24b3 053c 2053 36bd d741 00bd 6ec3 7b3c
00000370: 1102 d2bc d8fa bcbc f70a f1bc 5a24 803c
00000380: 504f 443c e46a b0bc 8e9b 6dbb 95a5 0e3d
00000390: d51a e7bc 224a 4d3d bf35 2b3c 195f 743b
000003a0: 9357 753c 1458 8dbc 79e5 3bbc 9074 65bd
000003b0: 1be2 d8bc f4e2 d93b 5cab b1bb d3e4 00bc
000003c0: d7d0 48bd 47b9 ccbc 0e96 d4bc 7f0b 1b3d
000003d0: 1ab4 263d c6a0 413d 0e02 213d 9945 843d
000003e0: 7b45 91bd fd86 94bd bf24 74bc ac17 d8bb
000003f0: 632f 873b 4428 b13c d4e4 813a 133c 523d
0.016332801 -0.008554998 0.022498295 -0.0061795064 -0.084135704 -0.018968094 -0.019973071 -0.011523594
-0.03877962 0.005457908 0.046797644 0.0473259 -0.007536304 -0.016238626 -0.002788554 0.01881074
-0.015193752 -0.060047027 -0.04075191 -0.01212038 -0.03599527 -0.0048648124 0.023988841 -0.023625359
0.00584393 0.03539286 0.010562434 -0.0036042042 0.001072013 0.02087815 -0.018200848 -0.0130146025
-0.0119213015 -0.0044223955 -0.036495175 -0.014319168 0.024673931 0.025838174 -0.0010421722 -0.0061952583
-0.0010174424 0.0064454116 0.0039868145 -0.02347923 -0.0700588 0.0021093357 0.017222743 -0.017243065
-0.014014336 -0.0003543842 -0.036767263 -0.030443856 0.07199936 -0.030103866 -0.042341385 -0.01572106
0.009306522 -0.030880002 -0.07323739 -0.032040667 -0.013810076 -0.077452675 -0.037503514 -0.033861108
-0.031119898 0.020291463 0.0034073328 -0.064158686 -0.03718236 -0.0070509263 0.01905913 0.01608073
-0.024236446 -0.0010194511 -0.03293406 -0.033194393 -0.035504136 -0.020665195 -0.01644886 0.024018684
-0.0032855489 -0.08790885 -0.06557412 -0.01274198 0.007336088 0.011547661 0.009597805 0.01208452
-0.021886995 0.010784991 -0.0066808094 -0.010483219 0.020717394 0.0017604714 0.05429075 -0.05334468
-0.014773039 -0.0010798953 0.012618831 0.0027146402 0.04041034 0.02589641 -0.017520262 0.041323695
-0.049132273 -0.021130515 0.031329602 0.0134148225 0.06857992 -0.0003533232 -0.009719239 0.0055240034
0.014305811 0.0023416642 0.06495765 0.061062247 -0.009622392 0.040993873 -0.0168636 -0.018652624
0.017246371 -0.0035481579 0.079990886 0.04159433 -0.006026345 0.00019949401 0.019764716 -0.007140465
0.0031958292 0.0422524 0.008569177 -0.0003738577 0.0033888533 0.022994911 0.004521876 -0.015369219
0.035222862 0.040096212 -0.02292226 -0.0039351988 0.0123537555 0.006870462 0.041407578 0.03078321
0.019541638 0.013437357 0.0017061388 0.0020500773 0.023564082 -0.0075196703 0.053524006 0.008523084
-0.011536261 -0.00022969733 0.016492411 0.02902284 0.018591767 -0.006164254 0.011323803 0.01967911
0.0074241967 0.012359488 0.008659903 -0.019165952 0.048268374 0.007648797 0.021516096 0.015522169
-0.007444742 0.029231217 0.026567992 -0.011278818 -0.008637193 0.011370608 0.0008943576 0.029440463
0.0117908195 -0.003684288 0.003479797 0.0026733244 -0.014156201 0.024978098 0.023872683 0.015449254
0.0003977477 0.05185906 0.0038436747 0.016553912 -0.023355521 0.006420209 -0.032377243 -0.058543786
0.009141088 -0.0048465254 0.00939476 -0.004091681 0.0051494376 0.0065169055 0.021026079 0.029940387
0.031048683 0.024115914 0.011800254 -0.006861125 0.01647313 -0.028818006 0.0074135116 -0.015645398
0.017349416 0.010692193 0.017378932 -0.02286003 -0.00040607085 0.005507247 0.03295523 0.02533005
0.008160386 -0.044512868 -0.03131279 0.015366418 -0.025635751 -0.02306883 -0.029424174 0.015642334
0.0119818 -0.021535344 -0.0036256048 0.03482588 -0.028211037 0.050119527 0.010449826 0.0037288128
0.014974493 -0.017253913 -0.011468285 -0.056019366 -0.026475003 0.0066493694 -0.005422039 -0.007867056
-0.04902729 -0.02499069 -0.025950458 0.03785276 0.040699102 0.047272466 0.0393086 0.06458587
-0.070933305 -0.072523095 -0.014901339 -0.006594619 0.004125522 0.021625645 0.0009910115 0.051326822

classifier.1.bias f4 [10]
00000000: 9027 61ba 2464 443c bf44 c6bc 3f62 2fbd
00000010: 05b7 95bd 8abc 3f3d b459 723d 9622 9cbd
00000020: 1b14 af3d ef10 023d
-0.0008588964 0.011986766 -0.024202703 -0.042818304 -0.07310299 0.046810664 0.05916758 -0.07623784
0.08548757 0.03175443
