resnet_fashionMNIST.pth (torch, 129152 bytes, 6 tensors)

conv1.weight f4 [15, 1, 3, 3]
00000000: eaad 183e 8958 f4be de96 ce3d 1bb1 523d
00000010: e8d4 04bf eea6 93be 8791 5cbe 0fa6 69be
00000020: 4e59 ad3e 7f27 1cbe 4db6 1c3f 0bd0 1a3f
00000030: 6e76 db3d 36c5 553e cbcd 783e 767e 3bbf
00000040: 4faf 99be d241 12bf bacc 0fbf f97f bd3e
00000050: 411d cb3e 5d61 57be aa6d 5a3d 0f8f 863e
00000060: 4800 f63d c9a6 b93c 2475 0f3e f186 093e
00000070: eae0 f93e 591c b0be fe95 e3be 9102 89bd
00000080: 3035 623d ced1 20bf 435a 8bbd 58aa 213d
00000090: 7a5f 32bb 3b86 32bd fc2d bdbd 4cdb b8be
000000a0: 4723 69be 98ea 13be 9f4d adbd 60a5 d9be
000000b0: 6ae7 56bd 4021 023f c038 8e3c e785 b83e
000000c0: f913 f73e 8813 a2be 9898 6bbe 46fe c3bd
000000d0: 0b70 d5be 2c39 26bf e4e6 41be 8025 2e3e
000000e0: 51a5 1b3d 47ad ab3c c44d ed3d 8e3d 883e
000000f0: 134a 6a3e ede7 343e abed 22be e4c8 55be
00000100: b0b9 9cbe 7572 7bbe fb42 2d3f 652b 133f
00000110: fba7 15bf 07b8 643d 778a e23e 7b13 b9be
00000120: 9f4c 7a3d 80da be3e 6753 04bc 0326 67bf
00000130: e0bf 27bd 72a1 0b3f a31a f5be 5a1c cbbd
00000140: cd7e 0d3f 5b4a 043f c7ea 19be 8600 c0be
00000150: c156 7b3f 742f 36be 99f0 58bf e0ff ef3e
00000160: 38cf 493e 217f 28bf 69c1 203f e2ec 2ebf
00000170: 4a7c 1abd 8573 733e e2ec 2cbf 90e2 233f
00000180: 61b1 653d e721 22bf ca2c f13e d64a 1ebe
00000190: 7e12 fcbd 7d20 5c3d e16f 843e 0d39 7b3d
000001a0: c770 90be 8c7a 92bd 0756 c23e 5b77 b0be
000001b0: 8d55 a1be e89d be3e 04b4 92bd 5413 d63e
000001c0: 6cdf 6f3e 345b d73d bd06 8b3e 0f7e 88bd
000001d0: 1aff c1be 3cce bf3e d53f d6be be5d f3be
000001e0: b1ec 20bf 8e7e f4be b6f8 6ebe b4c7 f3be
000001f0: 1a1c 453e a1b0 c83c fdd6 063f 71c3 a7be
00000200: 2a2e 823e b3e1 2d3e b867 85be f234 703e
00000210: 10e3 003f 3a45 333c d345 9cbe
0.14910093 -0.47723797 0.100873694 0.051438432 -0.5188737 -0.28838295 -0.2153989 -0.22817253
0.33857197 -0.15249442 0.6121567 0.604737 0.10715948 0.20876011 0.24297254 -0.7323984
-0.30016562 -0.57131684 -0.5617176 0.37011698 0.39670756 -0.21033235 0.05332724 0.2628102
0.120117724 0.022662537 0.1400953 0.13430382 0.48804408 -0.34396628 -0.44450372 -0.06689943
0.055226505 -0.62820137 -0.068043254 0.039469093 -0.0027217553 -0.043585043 -0.092372864 -0.3610481
-0.22767363 -0.14444959 -0.08462071 -0.42508984 -0.052466787 0.50831985 0.017361045 0.3603966
0.48257425 -0.31655526 -0.23007429 -0.09569983 -0.41687045 -0.6493099 -0.18935734 0.17006493
0.037999455 0.020956649 0.11587098 0.26609462 0.2287982 0.17666598 -0.15910976 -0.20877415
-0.30610418 -0.2455538 0.6768033 0.5748809 -0.5845944 0.055839565 0.44246265 -0.36147675
0.061108228 0.37276077 -0.008076525 -0.90292376 -0.04095447 0.5454322 -0.47871885 -0.09917517
0.5527161 0.5167596 -0.15030967 -0.375004 0.9817925 -0.1779154 -0.8474212 0.46874905
0.19707954 -0.65818983 0.6279512 -0.68330204 -0.037716188 0.23774536 -0.67548954 0.6401758
0.056077365 -0.6333298 0.47104484 -0.15458235 -0.123082146 0.05374192 0.25866607 0.061333705
-0.28211042 -0.0715228 0.3795626 -0.3446606 -0.31510583 0.37229848 -0.071632415 0.4181162
0.23425072 0.105154425 0.27153578 -0.06664669 -0.3788994 0.37462032 -0.41845575 -0.47532457
-0.6286116 -0.47752804 -0.23337063 -0.476133 0.19249001 0.024498286 0.52671796 -0.32766297
0.25425845 0.16980629 -0.26055694 0.23457697 0.5034647 0.010941798 -0.30522022

conv1.bias f4 [15]
00000000: 31ce 53bf 6504 f5bd 553a af3e cccb 1abf
00000010: d5f2 8abf f53d ce3e a167 da3e f8ed 66be
00000020: eadf 783e 85b6 8ab8 bb24 b23e 9524 5fbe
00000030: fb8d a53e d4c7 2bbf 36f2 4e3e
-0.827365 -0.11963729 0.3422419 -0.6046722 -1.0855356 0.40281644 0.42657188 -0.22551715
0.24304166 -6.61435e-05 0.34793648 -0.21791299 0.32334885 -0.6710179 0.20209584

conv2.weight f4 [15, 15, 3, 3]
00000000: 1f9c 7fbe a0b4 08be 65b8 9dbd dead 86be
00000010: 1ac1 e3bd b872 033d 2129 56be 34ad 0abe
00000020: 11d4 d6bb 80cf 0bbe 21f3 0dbe dcb3 f93d
00000030: 9425 edbd cb5d 5ebe e9a9 483d 04ac fbbb
00000040: 5b9a cfbd e8a4 8dbd 08a3 f9bc 1e23 023d
00000050: 3f35 4e3e 9ef0 07be 9840 edbc 6a63 a33c
00000060: 91ca 5e3a 75ea 93bd b01b 56bd 403b 023e
00000070: 6465 57be 9d48 0ebe c3ec 033e d1af 27be
00000080: f0f4 2fbe 9583 9d3d 7f4b da3d 1ea6 26be
00000090: 7e96 19be 45ee 3abe 78dc a1bd d62a 19bd
000000a0: eb84 77bd 7c44 b3bd 8f53 7ebc bf00 a1bd
000000b0: b170 ccbd f0cf 83bc bb33 1c3e 0031 8ebd
000000c0: 4e98 babd d013 533e 2695 2e3e 60e7 8b3d
000000d0: e11f 60bd 6d72 793e 45b4 1abe 3f9e 1cbe
000000e0: 3d75 eebc deac 2dbe 7392 fbbd d33b 41bd
000000f0: 6f6f f5bc a4c6 45be c8e2 7c3c 835b a2bd
00000100: 8ccf 36be 5d1b e8bd a091 dfbb 52a8 9cbd
00000110: 81f9 bbbd b57e 1fbe 9c9b 1abe 6a16 a5bd
00000120: 277f f93d 8bf6 5dbe 5db6 ec3d 6e38 4c3e
00000130: f6b5 8fbe e2d3 63be 4a3f 2e3e bff2 cc3c
00000140: 0ad2 58be be58 8c3b 47d2 3e3e 86d0 b9be
00000150: ba03 5fbe c1b7 5b3e e986 893d ba6d 22be
00000160: 4067 30be 7e8d 633e f337 a0bd 2da1 3dbd
00000170: 47af 0e3e 8e7a 8fbd e984 c1bd c109 413e
00000180: 64a8 223e f7ac 66be 76db 2f3e 550c d83d
00000190: f223 9e3d 796c 8ebd 8c19 703c 32e9 283d
000001a0: e306 20bd 5b10 5a3d 89ae 2c3d 6e72 c43d
000001b0: 74ac 93bd 4adf 37bd c513 f4bd 5faf 05be
000001c0: e730 8ebe e4e7 0ebe ae20 3dbd 709f 67be
000001d0: 9b9b 77bc 7ccb 293d f050 063e 462a 243d
000001e0: d3f7 c8bd c75a 093e a5a5 b53d a74e 21be
000001f0: cd96 413e d353 903d 5623 f3bd 977f a63d
00000200: e289 f9bc f7aa 58bd b699 98bd 3b07 e13b
00000210: b326 ad3d f367 20be ffb4 583d 354e 113e
00000220: 9deb ae3d d62a 413d 94aa 2d3e bd57 aebd
00000230: b404 abbc 1510 043e a4ef 06bd baef 0c3b
00000240: 2ff7 babd d26c 8dbd 3828 243d 15ef a1bc
00000250: 7f27 09bb 14cc fabc fdf0 cfbc 14e0 1e3d
00000260: 5166 b3bc d5ed 4dbd 9ad8 afbd 51e7 ffbd
00000270: 6e45 0fbe c7bc 9ebd 8f65 953d d9d2 1d3b
00000280: 22a6 fe3d 0dc6 c93d 0355 053e 35fb 413e
00000290: 0370 163d be00 acbb 8421 023d faca d83b
000002a0: ffaf b0bd 8b8c bf3d dbb2 0abd 2249 79bd
000002b0: d09d abbd f4d9 5d3c 94eb a3bc eb61 903c
000002c0: baaf 82bd 7a89 85bc 6b90 333c 8787 3dbb
000002d0: cb83 893d c35a 813c 3eb3 1d3d 5424 f93d
000002e0: 8249 6abe 8f4b 53bd 882c 2f3e 7d19 45bd
000002f0: cc19 a6bc 1c39 6ebd e395 c4bd 41cf adbd
00000300: 498f 0fbe 7b21 17be cff5 a8ba 527f 00be
00000310: 1640 e5bd 6f5a b1bc bf9a d4bd dbc0 8dbd
00000320: 4ce1 bcbc f38e d7bd 9aba 82bd b21f babd
00000330: c64d cdbc d4a0 2fbe 0856 8bbd fa19 a63c
00000340: 86ee 6e3c 8bd2 23bb 8601 823d 0054 513e
00000350: 9559 8c3d f261 26bd 4841 433d 656c 24bd
00000360: d9f5 c53d b607 1a3c 12bc c7bc a263 de3d
00000370: eb76 8dbd b332 ddbb e143 913c cc35 46bd
00000380: 1f34 a73b 4f03 df3d 11d1 09be df72 323d
00000390: 3ebd 613e 5309 eebd 117f cfbb 8cdd d33d
000003a0: 8747 0cbe b62a 5bbe b663 9abb 2f57 fd3c
000003b0: bae8 e2bb e1f7 9fbc 472e bebc a3bf 4cbd
000003c0: 9adf 8e3d c2dc 85bd 6eed 753d 52f0 99bd
000003d0: e98c 27bd 5ad0 15bd 5775 bfbd f18c c5bd
000003e0: 696e 0fbd 5cc5 acbd 2ecd 00be 18e7 053c
000003f0: b05b f63b 4b8b 0b3e 0cd6 f53c 594d a03e
-0.24961899 -0.13350153 -0.07701186 -0.26304525 -0.111208156 0.032091826 -0.20914127 -0.13542634
-0.006556042 -0.13653374 -0.13862278 0.121925086 -0.11579433 -0.21715467 0.048990164 -0.007680418
-0.10136863 -0.06916219 -0.030473247 0.03177177 0.201375 -0.13275382 -0.028961465 0.019944865
0.00084988127 -0.072224535 -0.0522725 0.12717915 -0.21034771 -0.13894887 0.12883286 -0.16375662
-0.1718328 0.07691113 0.10658931 -0.16274306 -0.14998814 -0.18254955 -0.07903379 -0.037394367
-0.060429495 -0.08753297 -0.015522852 -0.078614704 -0.09982432 -0.016090363 0.15254109 -0.0694294
-0.09111081 0.20613027 0.17049083 0.06831241 -0.054717902 0.24360056 -0.1510783 -0.15294741
-0.029108638 -0.16960475 -0.12283792 -0.047176193 -0.029960362 -0.19314057 0.015434928 -0.07927611
-0.1785261 -0.11333344 -0.00682278 -0.07649292 -0.091784485 -0.15575679 -0.15098423 -0.08060916
0.121824555 -0.2167608 0.115582205 0.19943401 -0.28068513 -0.22248796 0.1701633 0.025018094
-0.21173874 0.00428304 0.18634902 -0.36291903 -0.21778765 0.21456815 0.06715185 -0.1586217
-0.17226887 0.22221944 -0.078231715 -0.046296287 0.1393405 -0.07005797 -0.09449179 0.18851377
0.15884548 -0.22526918 0.17173561 0.10549227 0.077217 -0.06954283 0.014654528 0.041238017
-0.039069068 0.053238254 0.042158637 0.09592138 -0.07210627 -0.04489068 -0.11917833 -0.1305518
-0.27771685 -0.13955647 -0.046173744 -0.22619414 -0.015112783 0.041453823 0.13116813 0.040079378
-0.09812894 0.13413535 0.08869485 -0.1575266 0.18905182 0.07047238 -0.11871974 0.081298046
-0.030461255 -0.05289742 -0.07451193 0.006867317 0.08454647 -0.15664653 0.052906986 0.1418999
0.085410334 0.047159992 0.16959602 -0.085128285 -0.020876266 0.1289676 -0.032943383 0.0021505193
-0.09129178 -0.069055215 0.040077418 -0.019767324 -0.0020928083 -0.03061489 -0.025383467 0.038787916
-0.021899374 -0.050275642 -0.08586235 -0.12495292 -0.13991329 -0.0775085 0.072947614 0.0024081974
0.12434031 0.09852228 0.1302071 0.18943484 0.036727916 -0.005249112 0.031770244 0.0066159936
-0.086273186 0.09352978 -0.033861976 -0.06086076 -0.0837971 0.013540734 -0.020009793 0.017624816
-0.063811734 -0.016300905 0.010959725 -0.0028919892 0.06714591 0.015790349 0.038501017 0.12165132
-0.22879604 -0.05158573 0.17106831 -0.04812001 -0.020275973 -0.058159932 -0.09598901 -0.08486796
-0.14019503 -0.14758866 -0.001289064 -0.12548569 -0.11193864 -0.021649567 -0.10381078 -0.0692155
-0.023056649 -0.10525312 -0.06383248 -0.09088077 -0.0250615 -0.17151195 -0.068035185 0.020276058
0.014583236 -0.002499732 0.06347947 0.204422 0.06853024 -0.04062075 0.04766968 -0.040142436
0.09666032 0.0094012525 -0.024381671 0.10858847 -0.069074474 -0.0067504286 0.017732562 -0.04839115
0.005102649 0.10889303 -0.13458659 0.04356658 0.22044846 -0.11622872 -0.006332286 0.10344991
-0.1369916 -0.21403012 -0.0047115935 0.030925361 -0.006924716 -0.019527378 -0.023215426 -0.049987447
0.06976242 -0.06536247 0.060040884 -0.075165406 -0.040905867 -0.036575653 -0.09348553 -0.09646023
-0.035017405 -0.08436081 -0.1257827 0.008172773 0.007518254 0.13627355 0.030009292 0.31309012

conv2.bias f4 [15]
00000000: 1315 473e e57c 123d efc6 86bd d8fc 623d
00000010: 0155 563e 22c2 dc3e c728 a1bd 050a 973e
00000020: 4b4f ac3d d451 033e 685a 4139 31a7 ab3e
00000030: 6ec2 fb3d a304 a9bc a35e 8bba
0.19441633 0.03576364 -0.06580912 0.05541691 0.20930864 0.43116862 -0.07869106 0.29499832
0.084135614 0.12824184 0.00018439593 0.33525994 0.12292944 -0.020632094 -0.0010633062

classifier.1.weight f4 [10, 2940]
00000000: d25e d33c 3718 a33c 1498 383a 32e9 0f3d
00000010: 7014 dc3c 7ed3 823c 135f 30bd 26d3 41bd
00000020: 36b5 abbc 7263 ff3a e2b9 ebbb db08 a5bc
00000030: d0cf 29bd 902b c33c f0c1 f23c 4ded 0f3d
00000040: b5f2 803d c42a a93d 015d ab3d 43f4 a63d
00000050: f6c4 a1bc 0387 e5bc b4ec 253c 58c7 08bd
00000060: d01a 5bbd eae4 55bb 68e0 d3bc 4431 dd3b
00000070: f62b 703c 2fe8 103d c300 3f3d d539 133d
00000080: 0e5b 643a 7084 b83c 6439 9c3b f0bd 18bd
00000090: 6b98 2ebd 964d 2bbc 44e3 90bd a07a 443c
000000a0: a5a6 e03c e40a 3bb8 375b 213d 7ed1 9ebc
000000b0: 05da 493d ffdf 073d 7547 5a3c 308b 59bc
000000c0: 7822 32bd f77a a23b 9907 173c 0b74 4b3d
000000d0: 5d50 c1bc 3a82 03b9 1797 e93c 2c57 543c
000000e0: 72ad 363c 890d ddbc 30bd 753c b1fa bc3d
000000f0: c7c4 b33d 50dd 83bb 8edc 2abd d763 12bd
00000100: f902 d0bc cb4c 24bd dc29 38bd 1ee9 443c
00000110: 9243 0c3d 8694 1ebc 9ffb f53b 9843 17bd
00000120: 3df1 c23c 213b 903d 40df c93d 7c63 ec3c
00000130: bfcc 49bd 7090 00bd ddf0 8bbd 4763 09bd
00000140: 2e85 c0bb a843 613a 5850 a73c 6e54 1d3d
00000150: 7f12 19bc 4b4a 80bd 17e7 a23c e4a3 a33d
00000160: 8839 9f3d 8fd2 7a3d e8e0 0a3c 5652 1b3c
00000170: 14ac c3bc 3962 eebb 26cd faba 2600 0abd
00000180: 3e45 5d3d d6fd 0d3d 8059 b0bc ec86 81bd
00000190: a806 ca3c 44db 13b9 1f05 903c 4112 4c3d
000001a0: 9fc8 3c3c 524f 5b3d 34ac 433d ee80 12bc
000001b0: 8521 dc3b 1a2f b9bc 7398 873c 943f 06bd
000001c0: 4291 253b e34d 2abd 28b8 e63b 09ec a33c
000001d0: 8749 f93c 836e eebb b875 26bd c0e5 b0bc
000001e0: 91b7 323d bcc2 4b3d 34b8 793d 8651 763a
000001f0: c795 82bc 7371 2fbd 026d 003c 3066 3dbd
00000200: 3c98 eabb 06ac 8fbb f7f0 66bd c7bc 28bd
00000210: 6931 36bb c550 ab3b b0fd 98bc ed5d 6a3d
00000220: 66a7 723d 3306 ddbb b2c9 71bd 5277 ddbb
00000230: 9352 e13b cf63 26bd 0c63 81bd dc44 c43c
00000240: a500 c6bc 6135 68bd e454 e1bc 01c8 533c
00000250: 6e20 3fbc cddb 473d 4830 793d c4fc cebc
00000260: 3286 e6bc b89e a8bb 3960 26bc 636a b3bc
00000270: 904e b9bc cab5 f73a 9f91 453d 42dc bf3b
00000280: 9a22 02bd 09b0 cdbb dea7 6cbc 3852 2fbc
00000290: 1eaa a93b a00c 07bd 9cad 21bc 1250 3bbd
000002a0: 7d9d bf3a e7c0 2fbd ece1 24bd 9b0c 55bc
000002b0: 5caf da3c 1205 78ba edce 00bd a26f 51bd
000002c0: 51bc 3abd 080a e93b 9128 ac3a 7eeb 203c
000002d0: 5f9d ccbb 2131 04bd bb18 a83c eebd 95ba
000002e0: 4811 b5bc 068e 0dbd 2163 5fbc f939 8dbc
000002f0: 8361 2ab9 63ad c83b 1cf0 8c3c c697 243d
00000300: 7573 893d 3d09 273d 6a2b 8a3c c63f 1b3c
00000310: 30ea 4fbb 8c5d f7bc c385 a5bc c23a f13c
00000320: 9465 d33c 21d0 293b 0961 8a3c 077e 8cbc
00000330: 6c58 013d 4425 f9bc 9e06 363d 45e5 143d
00000340: 82ad a33b 6b73 323c 051c 483c ae7b 183d
00000350: d393 d43c 1dcb 0f3d 32c8 d63c 7041 083c
00000360: 9b25 523c eb12 8b3b 74ad 853d 6382 2c3d
00000370: e379 a83c 86ce 823d a53e 363d 6edf 0f3c
00000380: 991e f53a 5f61 e43c 54aa 0b3b ae43 503c
00000390: b515 42bd 50ed 883c 567f 7d3d 9034 273d
000003a0: 393f 953d 8d9d 893d dae0 61bc 6b23 7d3b
000003b0: d335 0bbb 7c0d 49bc 8f13 f73c 4cde 753c
000003c0: 5ef4 70bb f198 63bc 36f2 863b 87b2 9fbc
000003d0: 5789 a6ba 2137 353d 9889 203d c429 733c
000003e0: b8d8 1d3d 781b 2dbd 104c 35bd 3115 5dbc
000003f0: 1737 973b 5c19 983c 9e52 6a3d 004c ba3c
0.02580205 0.019909007 0.00070417044 0.0351345 0.026865214 0.015969988 -0.04305942 -0.047320507
-0.020960432 0.0019484593 -0.00719379 -0.020145824 -0.04145795 0.023824483 0.029633492 0.035138417
0.06296293 0.0826011 0.083673485 0.08152058 -0.019747239 -0.02801848 0.010127235 -0.033393234
-0.053492367 -0.0032637664 -0.025863841 0.0067502577 0.014658919 0.035377678 0.046631586 0.035943825
0.0008711078 0.022524089 0.0047675837 -0.037290514 -0.042625826 -0.01045551 -0.070745975 0.011992127
0.027423212 -4.4594417e-05 0.03939363 -0.019387003 0.049280185 0.033172604 0.013322701 -0.013277814
-0.043489903 0.004958506 0.00921812 0.049671214 -0.02359789 -0.00012541647 0.028514428 0.0129602365
0.011149751 -0.026983993 0.014998719 0.09227503 0.08777767 -0.0040241852 -0.041714244 -0.035739746
-0.025392042 -0.040112298 -0.044961795 0.01201847 0.034244128 -0.009678965 0.007506802 -0.036929697
0.023796672 0.07042528 0.09857035 0.028856032 -0.049267527 -0.031387746 -0.068330504 -0.033541944
-0.0058752513 0.00085931504 0.020424053 0.038410597 -0.009342789 -0.0626417 0.019885583 0.07990244
0.07774645 0.06123596 0.008476473 0.00948008 -0.023885764 -0.0072748926 -0.0019134625 -0.033691548
0.054021113 0.034665905 -0.021527052 -0.063245624 0.024661377 -0.00014100695 0.017580567 0.049822096
0.011522441 0.053542443 0.047771648 -0.008941872 0.006717863 -0.022605468 0.016552186 -0.032775477
0.0025263582 -0.041578185 0.007040996 0.020010011 0.030430568 -0.0072763576 -0.04063961 -0.021593928
0.043632094 0.04974626 0.060966685 0.0009396303 -0.01594056 -0.042832803 0.0078384895 -0.04624003
-0.007159261 -0.0043845205 -0.056382146 -0.041195657 -0.0027800447 0.0052281343 -0.018675655 0.05721848
0.059241675 -0.006745124 -0.059030242 -0.006758609 0.0068762987 -0.04062253 -0.0631772 0.023958616
-0.02417023 -0.05669153 -0.0275063 0.012926103 -0.011665447 0.048793603 0.06083706 -0.025267012
-0.028140161 -0.005145874 -0.010154777 -0.021901315 -0.02262047 0.0018898782 0.04823458 0.005855114
-0.03177128 -0.0062770885 -0.0144443195 -0.010700755 0.0051777503 -0.032971025 -0.009868052 -0.045730658
0.0014619079 -0.042908575 -0.04025452 -0.013003494 0.026694946 -0.0009461205 -0.03144734 -0.051131852
-0.04558975 0.0071117915 0.0013134648 0.009821771 -0.006244346 -0.032273415 0.020519605 -0.0011424401
-0.022102967 -0.034559272 -0.013634474 -0.017239558 -0.0001624879 0.006124185 0.017204337 0.040183805
0.06711475 0.040780295 0.016866405 0.009475654 -0.003172528 -0.030195974 -0.020205384 0.029446963
0.025805272 0.0025911408 0.016891973 -0.017149938 0.031578466 -0.030413277 0.044439904 0.03635146
0.004995049 0.010891776 0.012213712 0.037227325 0.025949394 0.035105813 0.026218507 0.008316383
0.012826349 0.0042441986 0.06527224 0.042116534 0.020565933 0.063870475 0.044493336 0.008781297
0.0018701135 0.027878461 0.002131124 0.012711449 -0.047383983 0.016714722 0.061889015 0.040821612
0.072874494 0.067195036 -0.013786519 0.0038625847 -0.0021241799 -0.012271281 0.030160693 0.015006613
-0.0036766748 -0.013891445 0.0041182293 -0.019494308 -0.0012705725 0.04424203 0.03919372 0.014841501
0.038536757 -0.042262524 -0.044261992 -0.013493822 0.0046147215 0.01856678 0.057207696 0.022741318

classifier.1.bias f4 [10]
00000000: 477a 5dbb 3daf be3a ac33 bdbc e809 11bd
00000010: 49bb b1bd 8229 893c c340 6b3d e69a b1bd
00000020: 6b08 b63d 2807 903c
-0.0033794807 0.0014548075 -0.023095928 -0.035409838 -0.086783 0.016743425 0.05743481 -0.08672123
0.08888324 0.017581537
